{"config": [{"config": {"dot_axes": -1, "mode": "concat", "output_shape_type": "raw", "mode_type": "raw", "output_shape": null, "concat_axis": -1, "name": "merge_1", "layers": [{"config": [{"config": {"activation": "linear", "filters": 32, "kernel_regularizer": null, "bias_regularizer": null, "batch_input_shape": [null, 16, 90, 120, 1], "bias_initializer": {"config": {"scale": 2.0, "distribution": "normal", "mode": "fan_in", "seed": null}, "class_name": "VarianceScaling"}, "padding": "same", "kernel_size": [3, 3, 3], "dtype": "float32", "bias_constraint": null, "use_bias": true, "data_format": "channels_last", "trainable": true, "kernel_initializer": {"config": {"scale": 2.0, "distribution": "normal", "mode": "fan_in", "seed": null}, "class_name": "VarianceScaling"}, "activity_regularizer": null, "name": "conv_11", "kernel_constraint": null, "strides": [1, 1, 1], "dilation_rate": [1, 1, 1]}, "class_name": "Conv3D"}, {"config": {"activation": "relu", "name": "activation_1", "trainable": true}, "class_name": "Activation"}, {"config": {"pool_size": [2, 2, 2], "strides": [2, 2, 2], "data_format": "channels_last", "trainable": true, "name": "pool_11", "padding": "valid"}, "class_name": "MaxPooling3D"}, {"config": {"filters": 32, "kernel_regularizer": null, "bias_regularizer": null, "padding": "same", "bias_initializer": {"config": {"scale": 2.0, "distribution": "normal", "mode": "fan_in", "seed": null}, "class_name": "VarianceScaling"}, "kernel_size": [3, 3, 3], "activation": "linear", "bias_constraint": null, "use_bias": true, "data_format": "channels_last", "trainable": true, "kernel_initializer": {"config": {"scale": 2.0, "distribution": "normal", "mode": "fan_in", "seed": null}, "class_name": "VarianceScaling"}, "activity_regularizer": null, "name": "conv_12", "kernel_constraint": null, "strides": [1, 1, 1], "dilation_rate": [1, 1, 1]}, "class_name": "Conv3D"}, {"config": {"beta_initializer": {"config": {}, "class_name": "Zeros"}, "name": "batch_normalization_1", "moving_variance_initializer": {"config": {}, "class_name": "Ones"}, "gamma_regularizer": null, "center": true, "beta_constraint": null, "scale": true, "momentum": 0.99, "trainable": true, "gamma_initializer": {"config": {}, "class_name": "Ones"}, "epsilon": 0.001, "moving_mean_initializer": {"config": {}, "class_name": "Zeros"}, "axis": -1, "beta_regularizer": null, "gamma_constraint": null}, "class_name": "BatchNormalization"}, {"config": {"activation": "relu", "name": "activation_2", "trainable": true}, "class_name": "Activation"}, {"config": {"pool_size": [2, 2, 2], "strides": [2, 2, 2], "data_format": "channels_last", "trainable": true, "name": "pool_12", "padding": "valid"}, "class_name": "MaxPooling3D"}, {"config": {"seed": null, "rate": 0.25, "name": "dropout_1", "noise_shape": null, "trainable": true}, "class_name": "Dropout"}, {"config": {"filters": 64, "kernel_regularizer": null, "bias_regularizer": null, "padding": "same", "bias_initializer": {"config": {"scale": 2.0, "distribution": "normal", "mode": "fan_in", "seed": null}, "class_name": "VarianceScaling"}, "kernel_size": [3, 3, 3], "activation": "linear", "bias_constraint": null, "use_bias": true, "data_format": "channels_last", "trainable": true, "kernel_initializer": {"config": {"scale": 2.0, "distribution": "normal", "mode": "fan_in", "seed": null}, "class_name": "VarianceScaling"}, "activity_regularizer": null, "name": "conv_13", "kernel_constraint": null, "strides": [1, 1, 1], "dilation_rate": [1, 1, 1]}, "class_name": "Conv3D"}, {"config": {"beta_initializer": {"config": {}, "class_name": "Zeros"}, "name": "batch_normalization_2", "moving_variance_initializer": {"config": {}, "class_name": "Ones"}, "gamma_regularizer": null, "center": true, "beta_constraint": null, "scale": true, "momentum": 0.99, "trainable": true, "gamma_initializer": {"config": {}, "class_name": "Ones"}, "epsilon": 0.001, "moving_mean_initializer": {"config": {}, "class_name": "Zeros"}, "axis": -1, "beta_regularizer": null, "gamma_constraint": null}, "class_name": "BatchNormalization"}, {"config": {"activation": "relu", "name": "activation_3", "trainable": true}, "class_name": "Activation"}, {"config": {"pool_size": [2, 2, 2], "strides": [2, 2, 2], "data_format": "channels_last", "trainable": true, "name": "pool_13", "padding": "valid"}, "class_name": "MaxPooling3D"}, {"config": {"seed": null, "rate": 0.25, "name": "dropout_2", "noise_shape": null, "trainable": true}, "class_name": "Dropout"}, {"config": {"filters": 64, "kernel_regularizer": null, "bias_regularizer": null, "padding": "same", "bias_initializer": {"config": {"scale": 2.0, "distribution": "normal", "mode": "fan_in", "seed": null}, "class_name": "VarianceScaling"}, "kernel_size": [3, 3, 3], "activation": "linear", "bias_constraint": null, "use_bias": true, "data_format": "channels_last", "trainable": true, "kernel_initializer": {"config": {"scale": 2.0, "distribution": "normal", "mode": "fan_in", "seed": null}, "class_name": "VarianceScaling"}, "activity_regularizer": null, "name": "conv_14", "kernel_constraint": null, "strides": [1, 1, 1], "dilation_rate": [1, 1, 1]}, "class_name": "Conv3D"}, {"config": {"beta_initializer": {"config": {}, "class_name": "Zeros"}, "name": "batch_normalization_3", "moving_variance_initializer": {"config": {}, "class_name": "Ones"}, "gamma_regularizer": null, "center": true, "beta_constraint": null, "scale": true, "momentum": 0.99, "trainable": true, "gamma_initializer": {"config": {}, "class_name": "Ones"}, "epsilon": 0.001, "moving_mean_initializer": {"config": {}, "class_name": "Zeros"}, "axis": -1, "beta_regularizer": null, "gamma_constraint": null}, "class_name": "BatchNormalization"}, {"config": {"activation": "relu", "name": "activation_4", "trainable": true}, "class_name": "Activation"}, {"config": {"pool_size": [2, 2, 2], "strides": [1, 2, 2], "data_format": "channels_last", "trainable": true, "name": "pool_14", "padding": "valid"}, "class_name": "MaxPooling3D"}, {"config": {"seed": null, "rate": 0.25, "name": "dropout_3", "noise_shape": null, "trainable": true}, "class_name": "Dropout"}, {"config": {"name": "flatten_1", "trainable": true}, "class_name": "Flatten"}, {"config": {"beta_initializer": {"config": {}, "class_name": "Zeros"}, "name": "batch_normalization_4", "moving_variance_initializer": {"config": {}, "class_name": "Ones"}, "gamma_regularizer": null, "center": true, "beta_constraint": null, "scale": true, "momentum": 0.99, "trainable": true, "gamma_initializer": {"config": {}, "class_name": "Ones"}, "epsilon": 0.001, "moving_mean_initializer": {"config": {}, "class_name": "Zeros"}, "axis": -1, "beta_regularizer": null, "gamma_constraint": null}, "class_name": "BatchNormalization"}], "class_name": "Sequential"}, {"config": [{"config": {"activation": "linear", "filters": 32, "kernel_regularizer": null, "bias_regularizer": null, "batch_input_shape": [null, 16, 90, 120, 1], "bias_initializer": {"config": {"scale": 2.0, "distribution": "normal", "mode": "fan_in", "seed": null}, "class_name": "VarianceScaling"}, "padding": "same", "kernel_size": [3, 3, 3], "dtype": "float32", "bias_constraint": null, "use_bias": true, "data_format": "channels_last", "trainable": true, "kernel_initializer": {"config": {"scale": 2.0, "distribution": "normal", "mode": "fan_in", "seed": null}, "class_name": "VarianceScaling"}, "activity_regularizer": null, "name": "conv_21", "kernel_constraint": null, "strides": [1, 1, 1], "dilation_rate": [1, 1, 1]}, "class_name": "Conv3D"}, {"config": {"activation": "relu", "name": "activation_5", "trainable": true}, "class_name": "Activation"}, {"config": {"pool_size": [2, 2, 2], "strides": [2, 2, 2], "data_format": "channels_last", "trainable": true, "name": "pool_21", "padding": "valid"}, "class_name": "MaxPooling3D"}, {"config": {"filters": 32, "kernel_regularizer": null, "bias_regularizer": null, "padding": "same", "bias_initializer": {"config": {"scale": 2.0, "distribution": "normal", "mode": "fan_in", "seed": null}, "class_name": "VarianceScaling"}, "kernel_size": [3, 3, 3], "activation": "linear", "bias_constraint": null, "use_bias": true, "data_format": "channels_last", "trainable": true, "kernel_initializer": {"config": {"scale": 2.0, "distribution": "normal", "mode": "fan_in", "seed": null}, "class_name": "VarianceScaling"}, "activity_regularizer": null, "name": "conv_22", "kernel_constraint": null, "strides": [1, 1, 1], "dilation_rate": [1, 1, 1]}, "class_name": "Conv3D"}, {"config": {"activation": "relu", "name": "activation_6", "trainable": true}, "class_name": "Activation"}, {"config": {"pool_size": [2, 2, 2], "strides": [2, 2, 2], "data_format": "channels_last", "trainable": true, "name": "pool_22", "padding": "valid"}, "class_name": "MaxPooling3D"}, {"config": {"seed": null, "rate": 0.25, "name": "dropout_4", "noise_shape": null, "trainable": true}, "class_name": "Dropout"}, {"config": {"filters": 64, "kernel_regularizer": null, "bias_regularizer": null, "padding": "same", "bias_initializer": {"config": {"scale": 2.0, "distribution": "normal", "mode": "fan_in", "seed": null}, "class_name": "VarianceScaling"}, "kernel_size": [3, 3, 3], "activation": "linear", "bias_constraint": null, "use_bias": true, "data_format": "channels_last", "trainable": true, "kernel_initializer": {"config": {"scale": 2.0, "distribution": "normal", "mode": "fan_in", "seed": null}, "class_name": "VarianceScaling"}, "activity_regularizer": null, "name": "conv_23", "kernel_constraint": null, "strides": [1, 1, 1], "dilation_rate": [1, 1, 1]}, "class_name": "Conv3D"}, {"config": {"beta_initializer": {"config": {}, "class_name": "Zeros"}, "name": "batch_normalization_5", "moving_variance_initializer": {"config": {}, "class_name": "Ones"}, "gamma_regularizer": null, "center": true, "beta_constraint": null, "scale": true, "momentum": 0.99, "trainable": true, "gamma_initializer": {"config": {}, "class_name": "Ones"}, "epsilon": 0.001, "moving_mean_initializer": {"config": {}, "class_name": "Zeros"}, "axis": -1, "beta_regularizer": null, "gamma_constraint": null}, "class_name": "BatchNormalization"}, {"config": {"activation": "relu", "name": "activation_7", "trainable": true}, "class_name": "Activation"}, {"config": {"pool_size": [2, 2, 2], "strides": [2, 2, 2], "data_format": "channels_last", "trainable": true, "name": "pool_23", "padding": "valid"}, "class_name": "MaxPooling3D"}, {"config": {"seed": null, "rate": 0.25, "name": "dropout_5", "noise_shape": null, "trainable": true}, "class_name": "Dropout"}, {"config": {"filters": 64, "kernel_regularizer": null, "bias_regularizer": null, "padding": "same", "bias_initializer": {"config": {"scale": 2.0, "distribution": "normal", "mode": "fan_in", "seed": null}, "class_name": "VarianceScaling"}, "kernel_size": [3, 3, 3], "activation": "linear", "bias_constraint": null, "use_bias": true, "data_format": "channels_last", "trainable": true, "kernel_initializer": {"config": {"scale": 2.0, "distribution": "normal", "mode": "fan_in", "seed": null}, "class_name": "VarianceScaling"}, "activity_regularizer": null, "name": "conv_4", "kernel_constraint": null, "strides": [1, 1, 1], "dilation_rate": [1, 1, 1]}, "class_name": "Conv3D"}, {"config": {"beta_initializer": {"config": {}, "class_name": "Zeros"}, "name": "batch_normalization_6", "moving_variance_initializer": {"config": {}, "class_name": "Ones"}, "gamma_regularizer": null, "center": true, "beta_constraint": null, "scale": true, "momentum": 0.99, "trainable": true, "gamma_initializer": {"config": {}, "class_name": "Ones"}, "epsilon": 0.001, "moving_mean_initializer": {"config": {}, "class_name": "Zeros"}, "axis": -1, "beta_regularizer": null, "gamma_constraint": null}, "class_name": "BatchNormalization"}, {"config": {"activation": "relu", "name": "activation_8", "trainable": true}, "class_name": "Activation"}, {"config": {"pool_size": [2, 2, 2], "strides": [1, 2, 2], "data_format": "channels_last", "trainable": true, "name": "pool_24", "padding": "valid"}, "class_name": "MaxPooling3D"}, {"config": {"seed": null, "rate": 0.25, "name": "dropout_6", "noise_shape": null, "trainable": true}, "class_name": "Dropout"}, {"config": {"name": "flatten_2", "trainable": true}, "class_name": "Flatten"}], "class_name": "Sequential"}], "output_mask": null, "arguments": {}, "output_mask_type": "raw"}, "class_name": "Merge"}, {"config": {"units": 256, "bias_regularizer": null, "bias_initializer": {"config": {"scale": 2.0, "distribution": "normal", "mode": "fan_in", "seed": null}, "class_name": "VarianceScaling"}, "activity_regularizer": null, "activation": "linear", "bias_constraint": null, "use_bias": true, "trainable": true, "kernel_initializer": {"config": {"scale": 2.0, "distribution": "normal", "mode": "fan_in", "seed": null}, "class_name": "VarianceScaling"}, "kernel_regularizer": null, "name": "dense_1", "kernel_constraint": null}, "class_name": "Dense"}, {"config": {"beta_initializer": {"config": {}, "class_name": "Zeros"}, "moving_variance_initializer": {"config": {}, "class_name": "Ones"}, "trainable": true, "center": true, "beta_constraint": null, "scale": true, "momentum": 0.99, "gamma_regularizer": null, "moving_mean_initializer": {"config": {}, "class_name": "Zeros"}, "gamma_initializer": {"config": {}, "class_name": "Ones"}, "epsilon": 0.001, "name": "batch_normalization_7", "axis": -1, "beta_regularizer": null, "gamma_constraint": null}, "class_name": "BatchNormalization"}, {"config": {"activation": "relu", "name": "activation_9", "trainable": true}, "class_name": "Activation"}, {"config": {"seed": null, "rate": 0.5, "name": "dropout_7", "noise_shape": null, "trainable": true}, "class_name": "Dropout"}, {"config": {"units": 256, "bias_regularizer": null, "bias_initializer": {"config": {"scale": 2.0, "distribution": "normal", "mode": "fan_in", "seed": null}, "class_name": "VarianceScaling"}, "activity_regularizer": null, "activation": "linear", "bias_constraint": null, "use_bias": true, "trainable": true, "kernel_initializer": {"config": {"scale": 2.0, "distribution": "normal", "mode": "fan_in", "seed": null}, "class_name": "VarianceScaling"}, "kernel_regularizer": null, "name": "dense_2", "kernel_constraint": null}, "class_name": "Dense"}, {"config": {"beta_initializer": {"config": {}, "class_name": "Zeros"}, "moving_variance_initializer": {"config": {}, "class_name": "Ones"}, "trainable": true, "center": true, "beta_constraint": null, "scale": true, "momentum": 0.99, "gamma_regularizer": null, "moving_mean_initializer": {"config": {}, "class_name": "Zeros"}, "gamma_initializer": {"config": {}, "class_name": "Ones"}, "epsilon": 0.001, "name": "batch_normalization_8", "axis": -1, "beta_regularizer": null, "gamma_constraint": null}, "class_name": "BatchNormalization"}, {"config": {"activation": "relu", "name": "activation_10", "trainable": true}, "class_name": "Activation"}, {"config": {"seed": null, "rate": 0.5, "name": "dropout_8", "noise_shape": null, "trainable": true}, "class_name": "Dropout"}, {"config": {"units": 9, "bias_regularizer": null, "bias_initializer": {"config": {"scale": 2.0, "distribution": "normal", "mode": "fan_in", "seed": null}, "class_name": "VarianceScaling"}, "activity_regularizer": null, "activation": "linear", "bias_constraint": null, "use_bias": true, "trainable": true, "kernel_initializer": {"config": {"scale": 2.0, "distribution": "normal", "mode": "fan_in", "seed": null}, "class_name": "VarianceScaling"}, "kernel_regularizer": null, "name": "dense_3", "kernel_constraint": null}, "class_name": "Dense"}, {"config": {"activation": "softmax", "name": "activation_11", "trainable": true}, "class_name": "Activation"}], "class_name": "Sequential", "keras_version": "2.1.2", "backend": "tensorflow"}